…
representations, dropout for regularization, and an output layer for prediction. It is a typical CNN architecture for image classification tasks.\n\n# Compile the model\nmodel1.compile(optimizer='adam',\n              loss='sparse_categorical_crossentropy',\n              metrics=['accuracy'])\n\n# Display the model summary\nmodel1.summary()\n\nModel: \"sequential\"\n_________________________________________________________________\n Layer (type)                Output Shape              Param #   \n=================================================================\n conv2d (Conv2D)             (None, 148, 148, 32)      896       \n                                                                 \n max_pooling2d (MaxPooling2  (None, 74, 74, 32)        0         \n D)                                                              \n                                                                 \n conv2d_1 (Conv2D)           (None, 72, 72, 64)        18496     \n                                                                 \n max_pooling2d_1 (MaxPoolin  (None, 36, 36, 64)        0         \n g2D)                                                            \n                                                                 \n flatten (Flatten)           (None, 82944)             0         \n                                                                 \n dense (Dense)               (None, 128)               10616960  \n                                                                 \n dropout (Dropout)           (None, 128)               0         \n                                                                 \n dense_1 (Dense)             (None, 2)                 258       \n                                                                 \n=================================================================\nTotal params: 10636610 (40.58 MB)\nTrainable params: 10636610 (40.58 MB)\nNon-trainable params: 0 (0.00 Byte)\n_________________________________________________________________\n\n\n\nCompiling the Model:\n\nmodel1.compile(optimizer='adam', loss='sparse_cat
…
nel_regularizer='l2'),\n    layers.Dropout(0.5),\n\n    layers.Dense(2, activation='softmax')\n])\noptimizer = optimizers.Adam(learning_rate=0.001)\nmodel2.compile(optimizer=optimizer,\n               loss='sparse_categorical_crossentropy',\n               metrics=['accuracy'])\nmodel2.build(input_shape=(0, 150, 150, 3))\nmodel2.summary()\n\nModel: \"sequential_73\"\n_________________________________________________________________\n Layer (type)                Output Shape              Param #   \n=================================================================\n sequential_69 (Sequential)  (None, 150, 150, 3)       0         \n                                                                 \n conv2d_92 (Conv2D)          (0, 148, 148, 32)         896       \n                                                                 \n batch_normalization_36 (Ba  (0, 148, 148, 32)         128       \n tchNormalization)                                               \n                                                                 \n max_pooling2d_92 (MaxPooli  (0, 74, 74, 32)           0         \n ng2D)                                                           \n                                                                 \n conv2d_93 (Conv2D)          (0, 72, 72, 64)           18496     \n                                                                 \n batch_normalization_37 (Ba  (0, 72, 72, 64)           256       \n tchNormalization)                                               \n                                                                 \n max_pooling2d_93 (MaxPooli  (0, 36, 36, 64)           0         \n ng2D)                                                           \n                                                                 \n conv2d_94 (Conv2D)          (0, 34, 34, 128)          73856     \n                                                                 \n batch_normalization_38 (Ba  (0, 34, 34, 128)          512       \n tchNormalization)                                               \n                                                                 \n max_pooling2d_94 (MaxPooli  (0, 17, 17, 128)          0         \n ng2D)                                                           \n                                                                 \n flatten_46 (Flatten)        (0, 36992)                0         \n                                                                 \n dense_113 (Dense)           (0, 256)                  9470208   \n                                                                 \n dropout_63 (Dropout)        (0, 256)                  0         \n                                                                 \n dense_114 (Dense)           (0, 128)                  32896     \n                                                                 \n dropout_64 (Dropout)        (0, 128)                  0         \n                                                                 \n dense_115 (Dense)           (0, 2)                    258       \n                                                                 \n=================================================================\nTotal params: 9597506 (36.61 MB)\nTrainable params: 9597058 (36.61 MB)\nNon-trainable params: 448 (1.75 KB)\n_________________________________________________________________\n\n\n\n# Train the model\nhistory2 = model2.fit(train_ds,\n                      e
…
rnel_regularizer='l2'),\n    layers.Dropout(0.5),\n\n    layers.Dense(128, activation='relu', kernel_regularizer='l2'),\n    layers.Dropout(0.5),\n\n    layers.Dense(2, activation='softmax')\n])\nmodel3.compile(optimizer='adam',\n               loss='sparse_categorical_crossentropy',\n               metrics=['accuracy'])\nmodel3.summary()\n\nModel: \"sequential_70\"\n_________________________________________________________________\n Layer (type)                Output Shape              Param #   \n=================================================================\n model_3 (Functional)        (None, 150, 150, 3)       0         \n                                                                 \n sequential_69 (Sequential)  (None, 150, 150, 3)       0         \n                                                                 \n conv2d_83 (Conv2D)          (None, 148, 148, 32)      896       \n                                                                 \n batch_normalization_27 (Ba  (None, 148, 148, 32)      128       \n tchNormalization)                                               \n                                                                 \n max_pooling2d_83 (MaxPooli  (None, 74, 74, 32)        0         \n ng2D)                                                           \n                                                                 \n conv2d_84 (Conv2D)          (None, 72, 72, 64)        18496     \n                                                                 \n batch_normalization_28 (Ba  (None, 72, 72, 64)        256       \n tchNormalization)                                               \n                                                                 \n max_pooling2d_84 (MaxPooli  (None, 36, 36, 64)        0         \n ng2D)                                                           \n                                                                 \n conv2d_85 (Conv2D)          (None, 34, 34, 128)       73856     \n                                                                 \n batch_normalization_29 (Ba  (None, 34, 34, 128)       512       \n tchNormalization)                                               \n                                                                 \n max_pooling2d_85 (MaxPooli  (None, 17, 17, 128)       0         \n ng2D)                                                           \n                                                                 \n flatten_43 (Flatten)        (None, 36992)             0         \n                                                                 \n dense_104 (Dense)           (None, 256)               9470208   \n                                                                 \n dropout_57 (Dropout)        (None, 256)               0         \n                                                                 \n dense_105 (Dense)           (None, 128)               32896     \n                                                                 \n dropout_58 (Dropout)        (None, 128)               0         \n                                                                 \n dense_106 (Dense)           (None, 2)                 258       \n                                                                 \n=================================================================\nTotal params: 9597506 (36.61 MB)\nTrainable params: 9597058 (36.61 MB)\nNon-trainable params: 448 (1.75 KB)\n_________________________________________________________________\n\n\n\n# Train the model\nhistory3 = model3.fit(train_ds,\n                      e
…
